…
      "execution_count": 7,
      "outputs": []
    },
    {
      "cell_type": "code",
      "execution_count": 8,
      "metadata": {
        "colab": {
          "base_uri": "https://localhost:8080/"
        },
        "id": "oaLxXYoW0wgl",
        "outputId": "5503c4b8-0a40-4f9e-873b-e824863171da"
      },
      "outputs": [
        {
          "output_type": "execute_result",
          "data": {
            "text/plain": [
              "SiameseBERTRegressor(\n",
              "  (bert): BertModel(\n",
              "    (embeddings): BertEmbeddings(\n",
              "      (word_embeddings): Embedding(30522, 768, padding_idx=0)\n",
              "      (position_embeddings): Embedding(512, 768)\n",
              "      (token_type_embeddings): Embedding(2, 768)\n",
              "      (LayerNorm): LayerNorm((768,), eps=1e-12, elementwise_affine=True)\n",
              "      (dropout): Dropout(p=0.1, inplace=False)\n",
              "    )\n",
              "    (encoder): BertEncoder(\n",
              "      (layer): ModuleList(\n",
              "        (0-11): 12 x BertLayer(\n",
              "          (attention): BertAttention(\n",
              "            (self): BertSdpaSelfAttention(\n",
              "              (query): Linear(in_features=768, out_features=768, bias=True)\n",
              "              (key): Linear(in_features=768, out_features=768, bias=True)\n",
              "              (value): Linear(in_features=768, out_features=768, bias=True)\n",
              "              (dropout): Dropout(p=0.1, inplace=False)\n",
              "            )\n",
              "            (output): BertSelfOutput(\n",
              "              (dense): Linear(in_features=768, out_features=768, bias=True)\n",
              "              (LayerNorm): LayerNorm((768,), eps=1e-12, elementwise_affine=True)\n",
              "              (dropout): Dropout(p=0.1, inplace=False)\n",
              "            )\n",
              "          )\n",
              "          (intermediate): BertIntermediate(\n",
              "            (dense): Linear(in_features=768, out_features=3072, bias=True)\n",
              "            (intermediate_act_fn): GELUActivation()\n",
              "          )\n",
              "          (output): BertOutput(\n",
              "            (dense): Linear(in_features=3072, out_features=768, bias=True)\n",
              "            (LayerNorm): LayerNorm((768,), eps=1e-12, elementwise_affine=True)\n",
              "            (dropout): Dropout(p=0.1, inplace=False)\n",
              "          )\n",
              "        )\n",
              "      )\n",
              "    )\n",
              "    (pooler): BertPooler(\n",
              "      (dense): Linear(in_features=768, out_features=768, bias=True)\n",
              "      (activation): Tanh()\n",
              "    )\n",
              "  )\n",
              "  (head): Sequential(\n",
              "    (0): Linear(in_features=1536, out_features=768, bias=True)\n",
              "    (1): ReLU()\n",
              "    (2): Dropout(p=0.3, inplace=False)\n",
              "    (3): Linear(in_features=768, out_features=30, bias=True)\n",
              "  )\n",
              ")"
            ]
          },
          "metadata": {},
          "execution_count": 8
        }
      ],
      "source": [
        "# Load model from Drive\n",
        "model_path = \"/content/drive/MyDrive/QArater/siamese_bert_5e.pt\"\n",
        "\n",
        "model = SiameseBERTRegressor()\n",
        "model.load_state_dict(torch.load(model_path, map_location=device))\n",
…
